models/CE_cif_trn_EOS1_6_best.pth (torch, 3623 bytes, 2 tensors)

linear.weight f4 [10, 64]
000000 a2 df 4f 3d c7 25 40 3c 7d d4 28 bd 54 a5 87 be
       0.050750382 0.011727757 -0.04121827 -0.26493323
000010 2b 96 0f be 71 55 f2 3e 5a 96 7a be 36 e4 e1 3e
       -0.14022128 0.47330812 -0.24471417 0.44119424
000020 1a 02 54 be 6b 4c 54 3e 88 75 6a be 41 f4 4d bd
       -0.20703927 0.20732276 -0.22896397 -0.050281767
000030 37 26 b9 3b f7 ce 05 3d 81 bb 75 be 33 da 80 3f
       0.0056503075 0.03266808 -0.23997308 1.0066589
000040 ce f2 df bd 54 c6 64 3e b7 5e 04 3e 30 1b 08 bf
       -0.10934983 0.22341281 0.12926756 -0.53166485
000050 5d e4 d9 be e7 22 0d bf e2 5b 52 3f 24 f2 8b bd
       -0.4255704 -0.5513138 0.8217145 -0.06833294
000060 b8 7a c9 3e 58 4c a8 bd 73 54 bb 3e eb b7 11 3e
       0.3935144 -0.082176864 0.36587867 0.14230315
000070 a5 83 cf 3d f6 d1 34 3f 85 63 1c 3e 22 14 10 be
       0.10132531 0.70632875 0.15272339 -0.1407018
000080 f9 71 58 3f 93 45 c5 3e 83 d8 d9 be a8 51 5c 3e
       0.8454891 0.38529643 -0.42547998 0.21515524
000090 87 20 33 be ac 7e 28 3e 68 5b 68 3e 2b b8 01 3f
       -0.17492877 0.16454571 0.22691119 0.50671643
0000a0 02 23 08 bf 63 35 c0 be 14 19 44 3f 92 19 92 bd
       -0.5317842 -0.3754073 0.76600766 -0.071337834
0000b0 4f 6b 9c 3e 3f d6 37 3d 59 d3 1d be 34 a7 bc be
       0.3055062 0.044882055 -0.15412654 -0.36846316
0000c0 36 38 ce 3e 04 86 86 be c4 69 85 be e3 f0 3e be
       0.4027726 -0.2627412 -0.26057255 -0.18646578
0000d0 a7 a2 45 be c0 ab c7 be e3 b3 a5 be ca f4 d8 3e
       -0.19300328 -0.38998222 -0.32363805 0.4237426
0000e0 b6 cb f3 3e 7f 34 4d be 1d 03 00 bf 4a 81 ee 3d
       0.47616357 -0.20039557 -0.5000475 0.11645754
0000f0 fd 3f 7e 3e 6f 51 8c 3e 4f 07 20 3e c8 65 d3 be
       0.24829097 0.2740588 0.15627788 -0.4128859
000100 f9 69 e0 3e c6 86 d2 3e 3d 4c 00 be 11 af 93 3e
       0.4383085 0.4111845 -0.12529083 0.28844503
000110 75 25 b8 bd 80 88 c1 3e 6f 9f 16 be 85 1d 4c be
       -0.08991519 0.37799454 -0.14709257 -0.19933136
000120 dd 48 3c be 11 7b b1 bd f3 ad 47 3f 7b c0 c9 be
       -0.1838717 -0.08666051 0.779998 -0.39404663
000130 33 16 36 bc 85 c7 46 3e 60 e7 ae 3e 70 78 24 3e
       -0.011113691 0.19412048 0.341609 0.16061568
000140 e8 6c e1 3e 57 39 0c 3e 72 24 39 3f b5 a0 97 be
       0.440284 0.13693748 0.72321236 -0.29614797
000150 87 13 40 bb b0 67 6b be c5 99 28 be 10 04 45 3b
       -0.0029308514 -0.22988772 -0.16464908 0.0030062236
000160 03 0f c4 bd 1e 04 93 3e d4 5e 76 3e dc 8d ac be
       -0.09573176 0.2871408 0.24059612 -0.3370198
000170 32 22 76 3e 06 bc a6 3e 12 06 2f be 96 ab f5 3d
       0.24036482 0.32565325 -0.1709216 0.11995618
000180 ab a7 9a bb 68 73 d1 bc a3 43 4a 3f a3 0e e0 bd
       -0.0047196946 -0.025567725 0.79009455 -0.10940292
000190 2f 47 80 be 56 18 2a 3e 1d 5b 6e be 4a 7c 99 bd
       -0.2505431 0.16610846 -0.23276944 -0.074944094
0001a0 fb 50 64 3f 2e 52 2a be bf 21 7d bd 71 29 a2 3e
       0.89186066 -0.16632912 -0.06179976 0.31672242
0001b0 aa 62 74 3f 0d 16 dc 3d 90 05 c4 be ac 56 11 bd
       0.9546305 0.10746393 -0.38285494 -0.035483047
0001c0 4a b6 14 be bb 66 8d 3d 08 d9 f2 3e 22 97 20 be
       -0.14522663 0.0690436 0.47431207 -0.15682653
0001d0 29 b5 c7 be d8 a4 fb be 61 54 83 be 00 3a e9 bd
       -0.39005402 -0.49149203 -0.25650313 -0.11388016
0001e0 69 aa 12 be 42 bf 66 3d fe 2e 68 3f 88 c1 b7 be
       -0.14322819 0.05633474 0.90696704 -0.3588984
0001f0 74 ea 58 be 0a a6 e0 bb cd f9 9d 3d 88 4a 10 3e
       -0.21183187 -0.006855731 0.07713661 0.14090931
000200 66 e0 28 3e 8f 30 0f be 4d b2 52 bc 5d e1 5a 3d
       0.16491851 -0.13983367 -0.012859893 0.05343758
000210 70 9a ca be 03 3a aa be d8 01 d8 3d 1f 58 07 3d
       -0.3957095 -0.33247384 0.10547227 0.033043023
000220 43 d7 4b 3e 04 46 24 bd 5c 85 96 3d e0 15 3d bd
       0.19906335 -0.040105835 0.07349655 -0.04616344
000230 2a 19 1f 3f cd ff a6 3c 25 02 76 be 26 16 4a be
       0.6214777 0.020385647 -0.24024256 -0.19735011
000240 f4 7f a2 3e da 3c ff 3e dc 03 ac bd 8f 8e d4 be
       0.31738245 0.49851114 -0.083991736 -0.41515014
000250 66 ad 99 be ec fa 70 3f 15 ca 82 be 1e 98 5f be
       -0.30015105 0.94132876 -0.255448 -0.21835372
000260 95 af a9 3d bd 88 02 bd 36 13 39 be 2e 96 93 3e
       0.08285443 -0.031868685 -0.18073735 0.28825516
000270 b3 f8 a4 3e f1 6a c0 bd 50 be 01 bd fd 79 a4 3e
       0.32220992 -0.093953975 -0.031675637 0.3212432
000280 cd b7 94 be 94 fa af bd 79 dc ab 3e 83 76 06 3a
       -0.2904648 -0.08592716 0.33566645 0.0005129354
000290 0e 09 35 3e f6 18 03 bd 8d 1d 14 3e 75 25 22 3f
       0.17679235 -0.032006226 0.14464398 0.63338405
0002a0 f1 7c bf be 04 dd 7b 3e ef b5 24 bf 3a db ac be
       -0.3740001 0.2459603 -0.6434011 -0.33761007
0002b0 c2 02 4b be 18 90 0a 3e 31 b7 2a 3f 81 09 6a bd
       -0.19825271 0.1353153 0.6668578 -0.05713797
0002c0 81 eb 71 3e 99 f2 5c 3f 4a 6d b5 37 d5 58 22 bf
       0.23624994 0.86307675 2.1627773e-05 -0.63416797
0002d0 54 48 a4 3e a4 15 92 be 6c f0 93 3e 29 a0 62 3f
       0.32086432 -0.28532135 0.28894365 0.88525635
0002e0 95 de f1 3e 26 89 2d be 9c df d3 bd 2a a6 1d be
       0.4724013 -0.16946849 -0.103453845 -0.15395418
0002f0 64 05 db be 14 8a 90 bd 70 7c 85 bc 3f ac 85 be
       -0.4277755 -0.07057586 -0.016294688 -0.26107976
000300 cd d2 28 bd f8 ab 9f be 31 76 3b 3f e0 54 ee bd
       -0.04121666 -0.3118589 0.7322722 -0.11637282
000310 1d 31 86 3c 65 37 8e be 1a 9d b1 bd e1 af 8c 3e
       0.01638084 -0.27776638 -0.08672543 0.27477935
000320 1b 5a f7 3e d8 f1 eb be 38 fb af be 32 9e 79 3e
       0.48310933 -0.4608295 -0.34371352 0.24376753
000330 38 19 03 bf f5 46 a5 3e 46 5e 13 3f c9 d4 2f 3e
       -0.51210356 0.32280698 0.57565725 0.17171015
000340 6c be 50 be 56 fe 95 3c 74 27 66 bc b1 ef 5c 3f
       -0.2038514 0.018309753 -0.014047492 0.8630324
000350 6a e9 f0 bc 56 95 6e 3e b7 17 f3 bd ec 1b ed 3e
       -0.029408175 0.23299155 -0.118697576 0.46310365
000360 50 b1 8f bd f6 99 74 3e ce ae a3 be ed c1 ab 3d
       -0.070162416 0.23886856 -0.31969303 0.08386598
000370 da 4a 5f be d4 05 a3 3e b3 f6 b5 3d 91 3b 0d bf
       -0.21805897 0.31840384 0.08884945 -0.55169016
000380 e9 25 f1 bd 4f 5b cd bc 64 a6 84 3e cd 1f 0f 3f
       -0.11774809 -0.025067953 0.25908196 0.559079
000390 96 a7 9b 3e 92 6b 26 be c0 5a a7 be 3c 91 36 be
       0.30401295 -0.16251972 -0.32686424 -0.1782884
0003a0 30 4f 59 3e f8 bb 70 3f 39 a6 9a 3e 11 70 a7 be
       0.21221614 0.9403682 0.30204943 -0.32702687
0003b0 7f 22 a4 bd 1d a5 f4 be 19 04 54 3e 68 06 ac bd
       -0.08014392 -0.4778222 0.20704688 -0.083996594
0003c0 52 dd b7 bc d8 f2 40 3e 21 5d e2 3e 2e 44 7b 3f
       -0.022444401 0.18842638 0.44211677 0.9815091
0003d0 09 9e ab 3c f3 f9 b2 be d8 0e 4c 3f d6 6a 00 bf
       0.02094938 -0.3495632 0.7971015 -0.5016302
0003e0 49 2b 18 be 33 ce 01 bc cb 5f 98 3e 22 13 a6 be
       -0.14860262 -0.007922697 0.29760584 -0.32436472
0003f0 09 6d 17 3e 9a de 38 be 1b a5 97 bd 09 37 52 3d
       0.14787687 -0.18053666 -0.07404538 0.051322017

linear.bias f4 [10]
000000 17 77 a6 be 5e d2 aa 3d 9d 1d 1c 3e 5f 83 96 be
       -0.32512733 0.083409056 0.15245672 -0.29397103
000010 f4 43 f6 3e 75 e0 8d 3d d8 3f cd 3e 97 c5 41 bd
       0.4809872 0.069275774 0.4008777 -0.047307577
000020 dc 96 b5 be 5b 29 59 be
       -0.3546666 -0.21207182
